2021-11-17 07:34:15,872 - train - INFO - BigArch(
  (row_encoder): EmbedderNN(
    (embedder): EmbeddingGenerator(
      (embeddings): ModuleList(
        (0): Embedding(49, 14)
        (1): Embedding(4, 3)
        (2): Embedding(7, 5)
        (3): Embedding(30, 11)
        (4): Embedding(3, 3)
        (5): Embedding(12, 6)
        (6): Embedding(35, 12)
        (7): Embedding(3, 3)
        (8): Embedding(10, 6)
        (9): Embedding(2, 2)
      )
    )
    (nn): Sequential(
      (0): Linear(in_features=106, out_features=512, bias=True)
      (1): Dropout(p=0.5, inplace=False)
      (2): Linear(in_features=512, out_features=256, bias=True)
      (3): Dropout(p=0.5, inplace=False)
    )
  )
  (rows_aggregator): RowsTransformerAggregator(
    (AttenLayer): TransformerEncoder(
      (layers): ModuleList(
        (0): TransformerEncoderLayer(
          (self_attn): MultiheadAttention(
            (out_proj): NonDynamicallyQuantizableLinear(in_features=256, out_features=256, bias=True)
          )
          (linear1): Linear(in_features=256, out_features=2048, bias=True)
          (dropout): Dropout(p=0.1, inplace=False)
          (linear2): Linear(in_features=2048, out_features=256, bias=True)
          (norm1): LayerNorm((256,), eps=1e-05, elementwise_affine=True)
          (norm2): LayerNorm((256,), eps=1e-05, elementwise_affine=True)
          (dropout1): Dropout(p=0.1, inplace=False)
          (dropout2): Dropout(p=0.1, inplace=False)
        )
        (1): TransformerEncoderLayer(
          (self_attn): MultiheadAttention(
            (out_proj): NonDynamicallyQuantizableLinear(in_features=256, out_features=256, bias=True)
          )
          (linear1): Linear(in_features=256, out_features=2048, bias=True)
          (dropout): Dropout(p=0.1, inplace=False)
          (linear2): Linear(in_features=2048, out_features=256, bias=True)
          (norm1): LayerNorm((256,), eps=1e-05, elementwise_affine=True)
          (norm2): LayerNorm((256,), eps=1e-05, elementwise_affine=True)
          (dropout1): Dropout(p=0.1, inplace=False)
          (dropout2): Dropout(p=0.1, inplace=False)
        )
      )
    )
  )
  (temporal_aggregator): TemporalGruAggregator(
    (gru): GRU(256, 256, num_layers=3, batch_first=True, dropout=0.5)
  )
  (classifier): Sequential(
    (0): Linear(in_features=256, out_features=512, bias=True)
    (1): Dropout(p=0.3, inplace=False)
    (2): Linear(in_features=512, out_features=49, bias=True)
  )
)
Trainable parameters: 4159126
2021-11-17 07:37:32,102 - train - INFO - BigArch(
  (row_encoder): EmbedderNN(
    (embedder): EmbeddingGenerator(
      (embeddings): ModuleList(
        (0): Embedding(49, 14)
        (1): Embedding(4, 3)
        (2): Embedding(7, 5)
        (3): Embedding(30, 11)
        (4): Embedding(3, 3)
        (5): Embedding(12, 6)
        (6): Embedding(35, 12)
        (7): Embedding(3, 3)
        (8): Embedding(10, 6)
        (9): Embedding(2, 2)
      )
    )
    (nn): Sequential(
      (0): Linear(in_features=106, out_features=512, bias=True)
      (1): Dropout(p=0.5, inplace=False)
      (2): Linear(in_features=512, out_features=256, bias=True)
      (3): Dropout(p=0.5, inplace=False)
    )
  )
  (rows_aggregator): RowsTransformerAggregator(
    (AttenLayer): TransformerEncoder(
      (layers): ModuleList(
        (0): TransformerEncoderLayer(
          (self_attn): MultiheadAttention(
            (out_proj): NonDynamicallyQuantizableLinear(in_features=256, out_features=256, bias=True)
          )
          (linear1): Linear(in_features=256, out_features=2048, bias=True)
          (dropout): Dropout(p=0.1, inplace=False)
          (linear2): Linear(in_features=2048, out_features=256, bias=True)
          (norm1): LayerNorm((256,), eps=1e-05, elementwise_affine=True)
          (norm2): LayerNorm((256,), eps=1e-05, elementwise_affine=True)
          (dropout1): Dropout(p=0.1, inplace=False)
          (dropout2): Dropout(p=0.1, inplace=False)
        )
      )
    )
  )
  (temporal_aggregator): TemporalGruAggregator(
    (gru): GRU(256, 256, num_layers=5, batch_first=True, dropout=0.5)
  )
  (classifier): Sequential(
    (0): Linear(in_features=256, out_features=512, bias=True)
    (1): Dropout(p=0.3, inplace=False)
    (2): Linear(in_features=512, out_features=49, bias=True)
  )
)
Trainable parameters: 3633558
2021-11-17 07:52:25,259 - trainer - INFO -     epoch          : 1
2021-11-17 07:52:25,489 - trainer - INFO -     loss           : 2.677156741742964
2021-11-17 07:52:25,489 - trainer - INFO -     NDCG           : 0.5084818005561829
2021-11-17 07:52:25,489 - trainer - INFO -     NDCG16         : 0.5777900218963623
2021-11-17 07:52:25,489 - trainer - INFO -     val_loss       : 2.3860302113867426
…
2021-11-17 08:51:50,285 - trainer - INFO -     NDCG           : 0.6513311862945557
2021-11-17 08:51:50,285 - trainer - INFO -     NDCG16         : 0.7047621011734009
2021-11-17 08:51:50,286 - trainer - INFO -     val_loss       : 2.1996173273433337
2021-11-17 08:51:50,286 - trainer - INFO -     val_NDCG       : 0.662486732006073
2021-11-17 08:51:50,286 - trainer - INFO -     val_NDCG16     : 0.7156974077224731
2021-11-17 08:51:54,214 - trainer - INFO - Improved! Saving current best: model_best.pth ...
2021-11-17 09:06:08,859 - train - INFO - BigArch(
  (row_encoder): EmbedderNN(
    (embedder): EmbeddingGenerator(
      (embeddings): ModuleList(
        (0): Embedding(49, 14)
        (1): Embedding(4, 3)
        (2): Embedding(7, 5)
        (3): Embedding(30, 11)
        (4): Embedding(3, 3)
        (5): Embedding(12, 6)
        (6): Embedding(35, 12)
        (7): Embedding(3, 3)
        (8): Embedding(10, 6)
        (9): Embedding(2, 2)
      )
    )
    (nn): Sequential(
      (0): Linear(in_features=106, out_features=512, bias=True)
      (1): Dropout(p=0.3, inplace=False)
      (2): Linear(in_features=512, out_features=256, bias=True)
      (3): Dropout(p=0.3, inplace=False)
    )
  )
  (rows_aggregator): RowsTransformerAggregator(
    (AttenLayer): TransformerEncoder(
      (layers): ModuleList(
        (0): TransformerEncoderLayer(
          (self_attn): MultiheadAttention(
            (out_proj): NonDynamicallyQuantizableLinear(in_features=256, out_features=256, bias=True)
          )
          (linear1): Linear(in_features=256, out_features=2048, bias=True)
          (dropout): Dropout(p=0.1, inplace=False)
          (linear2): Linear(in_features=2048, out_features=256, bias=True)
          (norm1): LayerNorm((256,), eps=1e-05, elementwise_affine=True)
          (norm2): LayerNorm((256,), eps=1e-05, elementwise_affine=True)
          (dropout1): Dropout(p=0.1, inplace=False)
          (dropout2): Dropout(p=0.1, inplace=False)
        )
      )
    )
  )
  (temporal_aggregator): TemporalGruAggregator(
    (gru): GRU(256, 512, batch_first=True, dropout=0.3)
  )
  (classifier): Sequential(
    (0): Linear(in_features=256, out_features=512, bias=True)
    (1): Dropout(p=0.3, inplace=False)
    (2): Linear(in_features=512, out_features=49, bias=True)
  )
)
Trainable parameters: 2842518
2021-11-17 09:07:55,928 - train - INFO - BigArch(
  (row_encoder): EmbedderNN(
    (embedder): EmbeddingGenerator(
      (embeddings): ModuleList(
        (0): Embedding(49, 14)
        (1): Embedding(4, 3)
        (2): Embedding(7, 5)
        (3): Embedding(30, 11)
        (4): Embedding(3, 3)
        (5): Embedding(12, 6)
        (6): Embedding(35, 12)
        (7): Embedding(3, 3)
        (8): Embedding(10, 6)
        (9): Embedding(2, 2)
      )
    )
    (nn): Sequential(
      (0): Linear(in_features=106, out_features=512, bias=True)
      (1): Dropout(p=0.3, inplace=False)
      (2): Linear(in_features=512, out_features=256, bias=True)
      (3): Dropout(p=0.3, inplace=False)
    )
  )
  (rows_aggregator): RowsTransformerAggregator(
    (AttenLayer): TransformerEncoder(
      (layers): ModuleList(
        (0): TransformerEncoderLayer(
          (self_attn): MultiheadAttention(
            (out_proj): NonDynamicallyQuantizableLinear(in_features=256, out_features=256, bias=True)
          )
          (linear1): Linear(in_features=256, out_features=2048, bias=True)
          (dropout): Dropout(p=0.1, inplace=False)
          (linear2): Linear(in_features=2048, out_features=256, bias=True)
          (norm1): LayerNorm((256,), eps=1e-05, elementwise_affine=True)
          (norm2): LayerNorm((256,), eps=1e-05, elementwise_affine=True)
          (dropout1): Dropout(p=0.1, inplace=False)
          (dropout2): Dropout(p=0.1, inplace=False)
        )
      )
    )
  )
  (temporal_aggregator): TemporalGruAggregator(
    (gru): GRU(256, 512, batch_first=True, dropout=0.3)
  )
  (classifier): Sequential(
    (0): Linear(in_features=512, out_features=1024, bias=True)
    (1): Dropout(p=0.3, inplace=False)
    (2): Linear(in_features=1024, out_features=49, bias=True)
  )
)
Trainable parameters: 3261334
2021-11-17 09:22:12,552 - trainer - INFO -     epoch          : 1
2021-11-17 09:22:12,670 - trainer - INFO -     loss           : 2.388547789121603
2021-11-17 09:22:12,670 - trainer - INFO -     NDCG           : 0.6075766086578369
2021-11-17 09:22:12,670 - trainer - INFO -     NDCG16         : 0.6686046719551086
2021-11-17 09:22:12,670 - trainer - INFO -     val_loss       : 2.185662323468691
…
