2021-12-30 17:04:00,219 - train - INFO - MultiIndexModelNNBn(
  (embedder): FixedEmbedder(
    (embeddings): ModuleList(
      (0): Embedding(49, 32)
      (1): Embedding(4, 32)
      (2): Embedding(7, 32)
      (3): Embedding(30, 32)
      (4): Embedding(3, 32)
      (5): Embedding(12, 32)
      (6): Embedding(35, 32)
      (7): Embedding(3, 32)
      (8): Embedding(10, 32)
      (9): Embedding(2, 32)
    )
    (nns): ModuleList(
      (0): Linear(in_features=1, out_features=32, bias=True)
      (1): Linear(in_features=1, out_features=32, bias=True)
      (2): Linear(in_features=1, out_features=32, bias=True)
      (3): Linear(in_features=1, out_features=32, bias=True)
      (4): Linear(in_features=1, out_features=32, bias=True)
      (5): Linear(in_features=1, out_features=32, bias=True)
      (6): Linear(in_features=1, out_features=32, bias=True)
      (7): Linear(in_features=1, out_features=32, bias=True)
      (8): Linear(in_features=1, out_features=32, bias=True)
      (9): Linear(in_features=1, out_features=32, bias=True)
      (10): Linear(in_features=1, out_features=32, bias=True)
      (11): Linear(in_features=1, out_features=32, bias=True)
      (12): Linear(in_features=1, out_features=32, bias=True)
      (13): Linear(in_features=1, out_features=32, bias=True)
      (14): Linear(in_features=1, out_features=32, bias=True)
      (15): Linear(in_features=1, out_features=32, bias=True)
      (16): Linear(in_features=1, out_features=32, bias=True)
      (17): Linear(in_features=1, out_features=32, bias=True)
      (18): Linear(in_features=1, out_features=32, bias=True)
      (19): Linear(in_features=1, out_features=32, bias=True)
      (20): Linear(in_features=1, out_features=32, bias=True)
      (21): Linear(in_features=1, out_features=32, bias=True)
      (22): Linear(in_features=1, out_features=32, bias=True)
      (23): Linear(in_features=1, out_features=32, bias=True)
      (24): Linear(in_features=1, out_features=32, bias=True)
      (25): Linear(in_features=1, out_features=32, bias=True)
      (26): Linear(in_features=1, out_features=32, bias=True)
      (27): Linear(in_features=1, out_features=32, bias=True)
      (28): Linear(in_features=1, out_features=32, bias=True)
      (29): Linear(in_features=1, out_features=32, bias=True)
      (30): Linear(in_features=1, out_features=32, bias=True)
      (31): Linear(in_features=1, out_features=32, bias=True)
      (32): Linear(in_features=1, out_features=32, bias=True)
      (33): Linear(in_features=1, out_features=32, bias=True)
      (34): Linear(in_features=1, out_features=32, bias=True)
      (35): Linear(in_features=1, out_features=32, bias=True)
      (36): Linear(in_features=1, out_features=32, bias=True)
      (37): Linear(in_features=1, out_features=32, bias=True)
      (38): Linear(in_features=1, out_features=32, bias=True)
      (39): Linear(in_features=1, out_features=32, bias=True)
      (40): Linear(in_features=1, out_features=32, bias=True)
      (41): Linear(in_features=1, out_features=32, bias=True)
    )
  )
  (row_encoder): Sequential(
    (0): Linear(in_features=1664, out_features=1152, bias=True)
    (1): LeakyReLU(negative_slope=0.01)
    (2): Dropout(p=0.4, inplace=False)
    (3): BatchNorm1d(1152, eps=1e-05, momentum=0.1, affine=True, track_running_stats=True)
    (4): Linear(in_features=1152, out_features=768, bias=True)
    (5): LeakyReLU(negative_slope=0.01)
    (6): Dropout(p=0.26666666666666666, inplace=False)
    (7): BatchNorm1d(768, eps=1e-05, momentum=0.1, affine=True, track_running_stats=True)
    (8): Linear(in_features=768, out_features=384, bias=True)
    (9): LeakyReLU(negative_slope=0.01)
    (10): Dropout(p=0.2, inplace=False)
    (11): BatchNorm1d(384, eps=1e-05, momentum=0.1, affine=True, track_running_stats=True)
    (12): Linear(in_features=384, out_features=192, bias=True)
    (13): LeakyReLU(negative_slope=0.01)
  )
  (rows_aggregator): Sequential(
    (0): Linear(in_features=9408, out_features=1152, bias=True)
    (1): LeakyReLU(negative_slope=0.01)
    (2): Dropout(p=0.4, inplace=False)
    (3): Linear(in_features=1152, out_features=768, bias=True)
    (4): LeakyReLU(negative_slope=0.01)
    (5): Dropout(p=0.26666666666666666, inplace=False)
    (6): Linear(in_features=768, out_features=384, bias=True)
    (7): LeakyReLU(negative_slope=0.01)
    (8): Dropout(p=0.2, inplace=False)
    (9): Linear(in_features=384, out_features=192, bias=True)
    (10): LeakyReLU(negative_slope=0.01)
  )
  (temporal_aggregator): Seq2SeqGruAggregator(
    (gru): GRU(192, 384, num_layers=3, batch_first=True, dropout=0.35)
  )
  (classifier): Sequential(
    (0): Linear(in_features=384, out_features=49, bias=True)
  )
)
Trainable parameters: 17740241
2021-12-30 17:04:49,531 - trainer - INFO - Loading checkpoint: ../save_dir/mm_nnbn_h192/base/fold3/model_best.pth ...
2021-12-30 17:04:52,045 - trainer - INFO - Checkpoint loaded. Resume training from epoch 43
2021-12-30 17:13:21,257 - trainer - INFO -     epoch          : 43
2021-12-30 17:13:21,307 - trainer - INFO -     loss           : 1.7183641341641127
…
