2021-11-17 15:33:32,607 - train - INFO - BigArch(
  (row_encoder): EmbedderNN(
    (embedder): EmbeddingGenerator(
      (embeddings): ModuleList(
        (0): Embedding(49, 14)
        (1): Embedding(4, 3)
        (2): Embedding(7, 5)
        (3): Embedding(30, 11)
        (4): Embedding(3, 3)
        (5): Embedding(12, 6)
        (6): Embedding(35, 12)
        (7): Embedding(3, 3)
        (8): Embedding(10, 6)
        (9): Embedding(2, 2)
      )
    )
    (nn): Sequential(
      (0): Linear(in_features=106, out_features=64, bias=True)
      (1): Dropout(p=0.3, inplace=False)
    )
  )
  (rows_aggregator): RowsTransformerAggregator(
    (AttenLayer): TransformerEncoder(
      (layers): ModuleList(
        (0): TransformerEncoderLayer(
          (self_attn): MultiheadAttention(
            (out_proj): NonDynamicallyQuantizableLinear(in_features=64, out_features=64, bias=True)
          )
          (linear1): Linear(in_features=64, out_features=256, bias=True)
          (dropout): Dropout(p=0.3, inplace=False)
          (linear2): Linear(in_features=256, out_features=64, bias=True)
          (norm1): LayerNorm((64,), eps=1e-05, elementwise_affine=True)
          (norm2): LayerNorm((64,), eps=1e-05, elementwise_affine=True)
          (dropout1): Dropout(p=0.3, inplace=False)
          (dropout2): Dropout(p=0.3, inplace=False)
        )
      )
    )
  )
  (temporal_aggregator): TemporalGruAggregator(
    (gru): GRU(64, 128, batch_first=True, dropout=0.3)
  )
  (classifier): Sequential(
    (0): Linear(in_features=128, out_features=49, bias=True)
  )
)
Trainable parameters: 139350
2021-11-17 15:39:24,839 - trainer - INFO -     epoch          : 1
2021-11-17 15:39:25,026 - trainer - INFO -     loss           : 3.2116453202318125
2021-11-17 15:39:25,026 - trainer - INFO -     NDCG           : 0.352378785610199
2021-11-17 15:39:25,027 - trainer - INFO -     NDCG16         : 0.4592808783054352
2021-11-17 15:39:25,027 - trainer - INFO -     val_loss       : 2.8447897690993087
…
2021-11-17 19:18:29,413 - trainer - INFO -     NDCG           : 0.6763041019439697
2021-11-17 19:18:29,413 - trainer - INFO -     NDCG16         : 0.7273624539375305
2021-11-17 19:18:29,414 - trainer - INFO -     val_loss       : 2.133444364254291
2021-11-17 19:18:29,414 - trainer - INFO -     val_NDCG       : 0.6807887554168701
2021-11-17 19:18:29,414 - trainer - INFO -     val_NDCG16     : 0.7325406074523926
2021-11-17 19:18:29,414 - trainer - INFO - Validation performance didn't improve for 3 epochs. Training stops.
2021-11-18 01:36:38,876 - train - INFO - BigArch(
  (row_encoder): EmbedderNN(
    (embedder): EmbeddingGenerator(
      (embeddings): ModuleList(
        (0): Embedding(49, 14)
        (1): Embedding(4, 3)
        (2): Embedding(7, 5)
        (3): Embedding(30, 11)
        (4): Embedding(3, 3)
        (5): Embedding(12, 6)
        (6): Embedding(35, 12)
        (7): Embedding(3, 3)
        (8): Embedding(10, 6)
        (9): Embedding(2, 2)
      )
    )
    (nn): Sequential(
      (0): Linear(in_features=106, out_features=64, bias=True)
      (1): Dropout(p=0.3, inplace=False)
    )
  )
  (rows_aggregator): RowsTransformerAggregator(
    (AttenLayer): TransformerEncoder(
      (layers): ModuleList(
        (0): TransformerEncoderLayer(
          (self_attn): MultiheadAttention(
            (out_proj): NonDynamicallyQuantizableLinear(in_features=64, out_features=64, bias=True)
          )
          (linear1): Linear(in_features=64, out_features=256, bias=True)
          (dropout): Dropout(p=0.3, inplace=False)
          (linear2): Linear(in_features=256, out_features=64, bias=True)
          (norm1): LayerNorm((64,), eps=1e-05, elementwise_affine=True)
          (norm2): LayerNorm((64,), eps=1e-05, elementwise_affine=True)
          (dropout1): Dropout(p=0.3, inplace=False)
          (dropout2): Dropout(p=0.3, inplace=False)
        )
      )
    )
  )
  (temporal_aggregator): TemporalGruAggregator(
    (gru): GRU(64, 128, batch_first=True, dropout=0.3)
  )
  (classifier): Sequential(
    (0): Linear(in_features=128, out_features=49, bias=True)
  )
)
Trainable parameters: 139350
2021-11-18 01:36:46,680 - trainer - INFO - Loading checkpoint: ../save_dir/EmbNN_Attn_GruMask_Small ...
2021-11-18 01:57:42,225 - train - INFO - BigArch(
  (row_encoder): EmbedderNN(
    (embedder): EmbeddingGenerator(
      (embeddings): ModuleList(
        (0): Embedding(49, 14)
        (1): Embedding(4, 3)
        (2): Embedding(7, 5)
        (3): Embedding(30, 11)
        (4): Embedding(3, 3)
        (5): Embedding(12, 6)
        (6): Embedding(35, 12)
        (7): Embedding(3, 3)
        (8): Embedding(10, 6)
        (9): Embedding(2, 2)
      )
    )
    (nn): Sequential(
      (0): Linear(in_features=106, out_features=64, bias=True)
      (1): Dropout(p=0.3, inplace=False)
    )
  )
  (rows_aggregator): RowsTransformerAggregator(
    (AttenLayer): TransformerEncoder(
      (layers): ModuleList(
        (0): TransformerEncoderLayer(
          (self_attn): MultiheadAttention(
            (out_proj): NonDynamicallyQuantizableLinear(in_features=64, out_features=64, bias=True)
          )
          (linear1): Linear(in_features=64, out_features=256, bias=True)
          (dropout): Dropout(p=0.3, inplace=False)
          (linear2): Linear(in_features=256, out_features=64, bias=True)
          (norm1): LayerNorm((64,), eps=1e-05, elementwise_affine=True)
          (norm2): LayerNorm((64,), eps=1e-05, elementwise_affine=True)
          (dropout1): Dropout(p=0.3, inplace=False)
          (dropout2): Dropout(p=0.3, inplace=False)
        )
      )
    )
  )
  (temporal_aggregator): TemporalGruAggregator(
    (gru): GRU(64, 128, batch_first=True, dropout=0.3)
  )
  (classifier): Sequential(
    (0): Linear(in_features=128, out_features=49, bias=True)
  )
)
Trainable parameters: 139350
2021-11-18 01:57:49,647 - trainer - INFO - Loading checkpoint: ../save_dir/EmbNN_Attn_GruMask_Small ...
