2021-12-08 06:51:41,356 - train - INFO - BigArch(
  (row_encoder): TransformerRowEncoder(
    (embedder): FixedEmbedder(
      (embeddings): ModuleList(
        (0): Embedding(49, 64)
        (1): Embedding(4, 64)
        (2): Embedding(7, 64)
        (3): Embedding(30, 64)
        (4): Embedding(3, 64)
        (5): Embedding(12, 64)
        (6): Embedding(35, 64)
        (7): Embedding(3, 64)
        (8): Embedding(10, 64)
        (9): Embedding(2, 64)
      )
      (nns): ModuleList(
        (0): Linear(in_features=1, out_features=64, bias=True)
        (1): Linear(in_features=1, out_features=64, bias=True)
        (2): Linear(in_features=1, out_features=64, bias=True)
        (3): Linear(in_features=1, out_features=64, bias=True)
        (4): Linear(in_features=1, out_features=64, bias=True)
        (5): Linear(in_features=1, out_features=64, bias=True)
        (6): Linear(in_features=1, out_features=64, bias=True)
        (7): Linear(in_features=1, out_features=64, bias=True)
        (8): Linear(in_features=1, out_features=64, bias=True)
        (9): Linear(in_features=1, out_features=64, bias=True)
        (10): Linear(in_features=1, out_features=64, bias=True)
        (11): Linear(in_features=1, out_features=64, bias=True)
        (12): Linear(in_features=1, out_features=64, bias=True)
        (13): Linear(in_features=1, out_features=64, bias=True)
        (14): Linear(in_features=1, out_features=64, bias=True)
        (15): Linear(in_features=1, out_features=64, bias=True)
        (16): Linear(in_features=1, out_features=64, bias=True)
        (17): Linear(in_features=1, out_features=64, bias=True)
        (18): Linear(in_features=1, out_features=64, bias=True)
        (19): Linear(in_features=1, out_features=64, bias=True)
        (20): Linear(in_features=1, out_features=64, bias=True)
        (21): Linear(in_features=1, out_features=64, bias=True)
        (22): Linear(in_features=1, out_features=64, bias=True)
        (23): Linear(in_features=1, out_features=64, bias=True)
        (24): Linear(in_features=1, out_features=64, bias=True)
        (25): Linear(in_features=1, out_features=64, bias=True)
        (26): Linear(in_features=1, out_features=64, bias=True)
        (27): Linear(in_features=1, out_features=64, bias=True)
        (28): Linear(in_features=1, out_features=64, bias=True)
        (29): Linear(in_features=1, out_features=64, bias=True)
        (30): Linear(in_features=1, out_features=64, bias=True)
        (31): Linear(in_features=1, out_features=64, bias=True)
        (32): Linear(in_features=1, out_features=64, bias=True)
        (33): Linear(in_features=1, out_features=64, bias=True)
        (34): Linear(in_features=1, out_features=64, bias=True)
        (35): Linear(in_features=1, out_features=64, bias=True)
        (36): Linear(in_features=1, out_features=64, bias=True)
        (37): Linear(in_features=1, out_features=64, bias=True)
        (38): Linear(in_features=1, out_features=64, bias=True)
        (39): Linear(in_features=1, out_features=64, bias=True)
        (40): Linear(in_features=1, out_features=64, bias=True)
        (41): Linear(in_features=1, out_features=64, bias=True)
      )
    )
    (attn_layer): TransformerEncoder(
      (layers): ModuleList(
        (0): TransformerEncoderLayer(
          (self_attn): MultiheadAttention(
            (out_proj): NonDynamicallyQuantizableLinear(in_features=64, out_features=64, bias=True)
          )
          (linear1): Linear(in_features=64, out_features=256, bias=True)
          (dropout): Dropout(p=0.3, inplace=False)
          (linear2): Linear(in_features=256, out_features=64, bias=True)
          (norm1): LayerNorm((64,), eps=1e-05, elementwise_affine=True)
          (norm2): LayerNorm((64,), eps=1e-05, elementwise_affine=True)
          (dropout1): Dropout(p=0.3, inplace=False)
          (dropout2): Dropout(p=0.3, inplace=False)
        )
        (1): TransformerEncoderLayer(
          (self_attn): MultiheadAttention(
            (out_proj): NonDynamicallyQuantizableLinear(in_features=64, out_features=64, bias=True)
          )
          (linear1): Linear(in_features=64, out_features=256, bias=True)
          (dropout): Dropout(p=0.3, inplace=False)
          (linear2): Linear(in_features=256, out_features=64, bias=True)
          (norm1): LayerNorm((64,), eps=1e-05, elementwise_affine=True)
          (norm2): LayerNorm((64,), eps=1e-05, elementwise_affine=True)
          (dropout1): Dropout(p=0.3, inplace=False)
          (dropout2): Dropout(p=0.3, inplace=False)
        )
      )
    )
    (output_layer): Linear(in_features=64, out_features=128, bias=True)
  )
  (rows_aggregator): RowsTransformerAggregator(
    (AttenLayer): TransformerEncoder(
      (layers): ModuleList(
        (0): TransformerEncoderLayer(
          (self_attn): MultiheadAttention(
            (out_proj): NonDynamicallyQuantizableLinear(in_features=128, out_features=128, bias=True)
          )
          (linear1): Linear(in_features=128, out_features=512, bias=True)
          (dropout): Dropout(p=0.3, inplace=False)
          (linear2): Linear(in_features=512, out_features=128, bias=True)
          (norm1): LayerNorm((128,), eps=1e-05, elementwise_affine=True)
          (norm2): LayerNorm((128,), eps=1e-05, elementwise_affine=True)
          (dropout1): Dropout(p=0.3, inplace=False)
          (dropout2): Dropout(p=0.3, inplace=False)
        )
      )
    )
  )
  (temporal_aggregator): Seq2SeqGruAggregator(
    (gru): GRU(128, 256, num_layers=3, batch_first=True, dropout=0.3)
  )
  (classifier): Sequential(
    (0): Linear(in_features=256, out_features=49, bias=True)
  )
)
Trainable parameters: 1420401
2021-12-08 07:30:01,468 - trainer - INFO -     epoch          : 1
2021-12-08 07:30:01,513 - trainer - INFO -     loss           : 2.581075640756906
2021-12-08 07:30:01,513 - trainer - INFO -     seq2seq_NDCG16 : 0.6226339340209961
2021-12-08 07:30:01,513 - trainer - INFO -     val_loss       : 2.3477238670649316
2021-12-08 07:30:01,513 - trainer - INFO -     val_seq2seq_NDCG16: 0.6955094933509827
…
