2021-11-18 03:07:37,274 - train - INFO - BigArch(
  (row_encoder): EmbedderNN(
    (embedder): EmbeddingGenerator(
      (embeddings): ModuleList(
        (0): Embedding(49, 14)
        (1): Embedding(4, 3)
        (2): Embedding(7, 5)
        (3): Embedding(30, 11)
        (4): Embedding(3, 3)
        (5): Embedding(12, 6)
        (6): Embedding(35, 12)
        (7): Embedding(3, 3)
        (8): Embedding(10, 6)
        (9): Embedding(2, 2)
      )
    )
    (nn): Sequential(
      (0): Linear(in_features=106, out_features=128, bias=True)
      (1): Dropout(p=0.3, inplace=False)
    )
  )
  (rows_aggregator): RowsTransformerAggregator(
    (AttenLayer): TransformerEncoder(
      (layers): ModuleList(
        (0): TransformerEncoderLayer(
          (self_attn): MultiheadAttention(
            (out_proj): NonDynamicallyQuantizableLinear(in_features=128, out_features=128, bias=True)
          )
          (linear1): Linear(in_features=128, out_features=512, bias=True)
          (dropout): Dropout(p=0.3, inplace=False)
          (linear2): Linear(in_features=512, out_features=128, bias=True)
          (norm1): LayerNorm((128,), eps=1e-05, elementwise_affine=True)
          (norm2): LayerNorm((128,), eps=1e-05, elementwise_affine=True)
          (dropout1): Dropout(p=0.3, inplace=False)
          (dropout2): Dropout(p=0.3, inplace=False)
        )
        (1): TransformerEncoderLayer(
          (self_attn): MultiheadAttention(
            (out_proj): NonDynamicallyQuantizableLinear(in_features=128, out_features=128, bias=True)
          )
          (linear1): Linear(in_features=128, out_features=512, bias=True)
          (dropout): Dropout(p=0.3, inplace=False)
          (linear2): Linear(in_features=512, out_features=128, bias=True)
          (norm1): LayerNorm((128,), eps=1e-05, elementwise_affine=True)
          (norm2): LayerNorm((128,), eps=1e-05, elementwise_affine=True)
          (dropout1): Dropout(p=0.3, inplace=False)
          (dropout2): Dropout(p=0.3, inplace=False)
        )
      )
    )
  )
  (temporal_aggregator): TemporalGruAggregator(
    (gru): GRU(128, 256, num_layers=2, batch_first=True, dropout=0.3)
  )
  (classifier): Sequential(
    (0): Linear(in_features=256, out_features=49, bias=True)
  )
)
Trainable parameters: 1115798
2021-11-18 03:17:59,644 - trainer - INFO -     epoch          : 1
2021-11-18 03:18:00,929 - trainer - INFO -     loss           : 2.677436782477738
2021-11-18 03:18:00,930 - trainer - INFO -     NDCG           : 0.5175040364265442
2021-11-18 03:18:00,930 - trainer - INFO -     NDCG16         : 0.5890322327613831
2021-11-18 03:18:00,930 - trainer - INFO -     val_loss       : 2.3436805102491625
…
