2021-11-10 04:40:56,238 - train - INFO - GruNN(
  (embedder): EmbeddingGenerator(
    (embeddings): ModuleList(
      (0): Embedding(49, 14)
      (1): Embedding(4, 3)
      (2): Embedding(7, 5)
      (3): Embedding(30, 11)
      (4): Embedding(3, 3)
      (5): Embedding(12, 6)
      (6): Embedding(35, 12)
      (7): Embedding(3, 3)
      (8): Embedding(10, 6)
      (9): Embedding(2, 2)
    )
  )
  (gru): GRU(107, 128, num_layers=5, batch_first=True)
  (classifier): Sequential(
    (0): Linear(in_features=128, out_features=256, bias=True)
    (1): Dropout(p=0.5, inplace=False)
    (2): Linear(in_features=256, out_features=49, bias=True)
  )
)
Trainable parameters: 534550
2021-11-10 04:45:31,271 - trainer - INFO -     epoch          : 1
2021-11-10 04:45:31,324 - trainer - INFO -     loss           : 2.7773162377345098
2021-11-10 04:45:31,324 - trainer - INFO -     NDCG           : 0.4587421417236328
2021-11-10 04:45:31,325 - trainer - INFO -     NDCG16         : 0.5411239862442017
2021-11-10 04:45:31,325 - trainer - INFO -     val_loss       : 2.534494127194906
…
