2021-11-18 01:59:09,773 - train - INFO - BigArch(
  (row_encoder): EmbedderNN(
    (embedder): EmbeddingGenerator(
      (embeddings): ModuleList(
        (0): Embedding(49, 14)
        (1): Embedding(4, 3)
        (2): Embedding(7, 5)
        (3): Embedding(30, 11)
        (4): Embedding(3, 3)
        (5): Embedding(12, 6)
        (6): Embedding(35, 12)
        (7): Embedding(3, 3)
        (8): Embedding(10, 6)
        (9): Embedding(2, 2)
      )
    )
    (nn): Sequential(
      (0): Linear(in_features=106, out_features=64, bias=True)
      (1): Dropout(p=0.3, inplace=False)
    )
  )
  (rows_aggregator): RowsTransformerAggregator(
    (AttenLayer): TransformerEncoder(
      (layers): ModuleList(
        (0): TransformerEncoderLayer(
          (self_attn): MultiheadAttention(
            (out_proj): NonDynamicallyQuantizableLinear(in_features=64, out_features=64, bias=True)
          )
          (linear1): Linear(in_features=64, out_features=256, bias=True)
          (dropout): Dropout(p=0.3, inplace=False)
          (linear2): Linear(in_features=256, out_features=64, bias=True)
          (norm1): LayerNorm((64,), eps=1e-05, elementwise_affine=True)
          (norm2): LayerNorm((64,), eps=1e-05, elementwise_affine=True)
          (dropout1): Dropout(p=0.3, inplace=False)
          (dropout2): Dropout(p=0.3, inplace=False)
        )
      )
    )
  )
  (temporal_aggregator): TemporalGruAggregator(
    (gru): GRU(64, 128, batch_first=True, dropout=0.3)
  )
  (classifier): Sequential(
    (0): Linear(in_features=128, out_features=49, bias=True)
  )
)
Trainable parameters: 139350
2021-11-18 01:59:17,444 - trainer - INFO - Loading checkpoint: ../save_dir/EmbNN_Attn_GruMask_Small ...
2021-11-18 02:22:09,530 - train - INFO - BigArch(
  (row_encoder): EmbedderNN(
    (embedder): EmbeddingGenerator(
      (embeddings): ModuleList(
        (0): Embedding(49, 14)
        (1): Embedding(4, 3)
        (2): Embedding(7, 5)
        (3): Embedding(30, 11)
        (4): Embedding(3, 3)
        (5): Embedding(12, 6)
        (6): Embedding(35, 12)
        (7): Embedding(3, 3)
        (8): Embedding(10, 6)
        (9): Embedding(2, 2)
      )
    )
    (nn): Sequential(
      (0): Linear(in_features=106, out_features=64, bias=True)
      (1): Dropout(p=0.3, inplace=False)
    )
  )
  (rows_aggregator): RowsTransformerAggregator(
    (AttenLayer): TransformerEncoder(
      (layers): ModuleList(
        (0): TransformerEncoderLayer(
          (self_attn): MultiheadAttention(
            (out_proj): NonDynamicallyQuantizableLinear(in_features=64, out_features=64, bias=True)
          )
          (linear1): Linear(in_features=64, out_features=256, bias=True)
          (dropout): Dropout(p=0.3, inplace=False)
          (linear2): Linear(in_features=256, out_features=64, bias=True)
          (norm1): LayerNorm((64,), eps=1e-05, elementwise_affine=True)
          (norm2): LayerNorm((64,), eps=1e-05, elementwise_affine=True)
          (dropout1): Dropout(p=0.3, inplace=False)
          (dropout2): Dropout(p=0.3, inplace=False)
        )
      )
    )
  )
  (temporal_aggregator): TemporalGruAggregator(
    (gru): GRU(64, 128, batch_first=True, dropout=0.3)
  )
  (classifier): Sequential(
    (0): Linear(in_features=128, out_features=49, bias=True)
  )
)
Trainable parameters: 139350
2021-11-18 02:22:17,706 - trainer - INFO - Loading checkpoint: ../save_dir/EmbNN_Attn_GruMask_Small/model_best.pth ...
2021-11-18 02:22:36,916 - trainer - INFO - Checkpoint loaded. Resume training from epoch 36
2021-11-18 02:28:18,020 - trainer - INFO -     epoch          : 36
2021-11-18 02:28:18,204 - trainer - INFO -     loss           : 2.148417776196847
…
